(60000, 28, 28) (60000,)
(10000, 28, 28) (10000,)
Model: "sequential"
_________________________________________________________________
 Layer (type)                Output Shape              Param #
=================================================================
 dense (Dense)               (None, 256)               200960

 dense_1 (Dense)             (None, 128)               32896

 dense_2 (Dense)             (None, 64)                8256

 dense_3 (Dense)             (None, 32)                2080

 dense_4 (Dense)             (None, 10)                330

=================================================================
Total params: 244,522
Trainable params: 244,522
Non-trainable params: 0
_________________________________________________________________
2025-04-13 15:15:36.122024: I tensorflow/core/common_runtime/executor.cc:1197] [/device:CPU:0] (DEBUG INFO) Executor start aborting (this does not indicate an error and you can ignore this message): INVALID_ARGUMENT: You must feed a value for placeholder tensor 'Placeholder/_0' with dtype uint8 and shape [60000,28,28]
…
